src/num_recognition/checkpoints/test.pt (torch_old, 201834 bytes, 6 tensors)

conv1.weight f4 [32, 1, 3, 3]
00000000: b0ad 00bd 8101 d53d 48ba cc3e c7db e5be
00000010: 3e6d 2e3d 34f0 d63e 3f15 b6be e0e2 64be
00000020: 5488 033e 0a12 a53e 93b4 4bbe 09c2 543e
00000030: 5251 c03e 660f 833e e28d af3e 8a92 6f3e
00000040: f0ee 493e 516d 6e3e 22ff c43e e42c 8ebd
00000050: 41ed 3abe 4494 64bd 7d76 053e 2936 8dbd
00000060: 2f12 093e 08fa 843e 1873 da3e 226b 7ebe
00000070: e95d 9c3e d6bf 043e 04c6 eebd e784 933e
00000080: 1281 983e 3371 0e3e 67bf 953e 33a6 cf3e
00000090: 71f5 9bbe 1de4 c3bc 72e3 60bd 8aef 85be
000000a0: ce86 9dbd 6cdc 75be 524e b6be 436d cebd
000000b0: 8042 7bbd d1d5 913e 05e9 80ba 1d61 02bd
000000c0: 84fe 9d3e b36f 7f3c fba1 d1be 2f89 d93e
000000d0: 5933 693e 10cf 70be 3b50 773e c6fb 01be
000000e0: 8da7 dfbe 058b 6a3e 25fa 8f3e c402 153c
000000f0: 1e57 973e f177 a23e 91b5 e33d e7b2 bfbe
00000100: 04b6 0dbe bce8 c13e 67c7 1f3e 72b2 8d3d
00000110: 25fe 963e e79e 993e 5ceb b5bc ea96 89bd
00000120: 67d1 afbd 32dd 62bd 9da2 af3e 7146 97be
00000130: 4fa2 8ebe 7839 413e 2862 b73e 833b a2bb
00000140: c55e d2be 2caf 983e 03fb d83b b26a b0be
00000150: dc71 f5bb 9d18 643e abd1 c83e 29e9 eb3d
00000160: 94e8 0ebd 0a84 e83d 6757 053e 3464 20bd
00000170: cd76 85be e741 c73e 5ae5 aebe 831f 23be
00000180: 042b db3e 6ce7 abbd 748d bebe a44b 58be
00000190: 1565 7d3d e9a9 543e 088a de3e 62e3 5e3e
000001a0: 7faa 97bd a5a9 9a3e 2337 aa3d c4ed d43d
000001b0: cf20 953e 6791 97bd 38a6 c3be 191b 75bb
000001c0: 63d5 f73e 88b7 5fbe 7745 8f3d 008d 583e
000001d0: a6be 9f3d 1068 e83e c04d ff3d 071f d9be
000001e0: 4ade 9a3e 583e eebe 4343 73be 8b97 e9bd
000001f0: ac79 f1be 169a cf3e a3d3 073e 29e8 06bd
00000200: e3ad a63b e228 ac3e 6b79 3e3e 5d91 a43e
00000210: e606 9abe 1561 19be b1b1 79bd 8df7 8bbe
00000220: f039 73be 35ba 8c3e d25d e9be c10b 023e
00000230: 2e39 8cbc f299 f33d 6c6c cf3e 0351 d53b
00000240: cd3d 66bc 6b78 5f3e 0a1b 243e d889 dd3e
00000250: 4763 9b3e 96f6 193e 9a3b d0be 19ce dcbe
00000260: fd82 02be 5b28 eebc 2a80 b0be 4d51 bb3b
00000270: 4b86 623c 581d 17be f7a9 a8be e2e6 e03e
00000280: b97c 8b3e 95b5 863e fe5e 47be b72b b03d
00000290: 2717 d63e 4923 38bd 38a5 b93e 15b8 423e
000002a0: 862d 163e 17b4 403e 4de4 9e3d 238b b73e
000002b0: bf87 32be d76d c5be 2d15 583e 940b fe3e
000002c0: 8873 5ebd 351a f0bd ea5a 36bc 4d80 4d3e
000002d0: aac0 3ebe 0f92 cb3e cf1f 5d3e dbef 83be
000002e0: cd76 9abd a99e b63e 6a4f c53e 824e bc3e
000002f0: dddd c23e b3bf 04be 0b24 933e b09e 993e
00000300: 89c5 f8be 90be 98be fea7 1abe 7554 9a3e
00000310: 7bd5 19be acb9 6bbe 0821 56be 0344 30be
00000320: 2891 863c 9999 333e 435a c73c 1dea 883e
00000330: 8f1f 423e 0a8c be3b c622 35be 68a0 80be
00000340: 44e4 d9be 55ae 5dbe f7ae c13e 9e0e d73e
00000350: 47e3 913e c005 c93d e0ec 673d b750 acbd
00000360: d755 01bf 9528 7ebe 028e d53d 95f3 81be
00000370: bf84 233d 06e1 ef3e 6327 c33e aa3e 7f3e
00000380: 4f99 163e 519b b7be d6c9 19bf 895d e1be
00000390: 2aef b0be 8450 20bd 7682 d9bc 0fc0 d3bd
000003a0: 33ab e43e 90e1 083f 5a15 543e 05ca 9e3e
000003b0: 0b1f db3e ab14 0d3e 42cb 323e cf2e 923d
000003c0: c00d be3e e2b8 08bd 6bd8 87be ebc5 a6be
000003d0: 6081 8abe 9a80 acbe 7d6d 77be 35d3 33bd
000003e0: f575 283e 4f27 023e 420b 5f3e 1d82 0c3f
000003f0: 5216 8fbd 2226 a13e 3262 c43e 9eac 673e
-0.03141564 0.104006775 0.3998587 -0.4489424 0.04258465 0.41980135 -0.35563084 -0.22352171
0.12844974 0.32240325 -0.19893102 0.20777144 0.37562042 0.25597686 0.34287935 0.23395744
0.19720054 0.23283888 0.384759 -0.06942156 -0.18254568 -0.05580546 0.13033481 -0.06895096
0.13385843 0.2597201 0.42665935 -0.24845555 0.30540398 0.12963805 -0.11658862 0.28812334
0.29785973 0.1391037 0.2924759 0.40556487 -0.30460694 -0.023912484 -0.05490441 -0.26159316
-0.076917276 -0.24009866 -0.3560663 -0.10079434 -0.061342716 0.2848344 -0.000983507 -0.031830896
0.30858243 0.015590596 -0.40943894 0.42487475 0.22773494 -0.23516488 0.24151699 -0.126937
-0.4368252 0.22904594 0.28120533 0.009094898 0.29558653 0.31732133 0.111186154 -0.3744118
-0.13838965 0.37872875 0.1560341 0.06918801 0.29490772 0.30004045 -0.022206955 -0.06718238
-0.08584862 -0.05538673 0.34303752 -0.2954593 -0.27858207 0.18869579 0.35817075 -0.004950942
-0.41087928 0.29821146 0.00662172 -0.34456402 -0.0074903797 0.22275014 0.39222464 0.11519081
-0.034889773 0.113533095 0.13021623 -0.03915806 -0.260672 0.38917467 -0.34159356 -0.1592999
0.42806256 -0.083937496 -0.37217295 -0.21122605 0.061863977 0.2076794 0.43464684 0.21766427
-0.074055664 0.30207554 0.08311298 0.10396913 0.29126593 -0.0740078 -0.38212752 -0.0037400185
0.4840499 -0.21847355 0.06995671 0.21147537 0.07800035 0.45391893 0.124660015 -0.42406484
0.30247718 -0.4653194 -0.23756127 -0.11405858 -0.4716314 0.40547246 0.13264327 -0.03293625
0.005086647 0.3362494 0.18601005 0.32142153 -0.30083388 -0.1497844 -0.060960475 -0.27337304
-0.2375257 0.27485815 -0.45579392 0.12699796 -0.01711711 0.11894597 0.40512407 0.0065099015
-0.01405282 0.2182328 0.1602594 0.4326923 0.3034918 0.15035471 -0.40670472 -0.4312599
-0.1274528 -0.029071977 -0.3447278 0.005716479 0.013825963 -0.14757288 -0.32942173 0.4392615
0.27243593 0.2631041 -0.1946983 0.08602088 0.4181454 -0.044955526 0.36258864 0.19015534
0.14665803 0.18818699 0.07758389 0.3584834 -0.17434596 -0.38560364 0.21101828 0.49618208
-0.054309398 -0.117237486 -0.011130074 0.20068474 -0.18628183 0.3975987 0.21594165 -0.25768933
-0.07542191 0.35667923 0.3853715 0.36778647 0.38059893 -0.12963752 0.28738436 0.3000388
-0.48588207 -0.29832888 -0.15103146 0.3014256 -0.15022843 -0.23020047 -0.20911038 -0.17213444
0.016426638 0.17539062 0.024335032 0.26741114 0.18957351 0.005815034 -0.17689046 -0.2512238
-0.42556965 -0.21648534 0.378288 0.4200334 0.2849371 0.0981555 0.056622386 -0.08413833
-0.50521606 -0.24820168 0.104274765 -0.2538115 0.03992152 0.46851367 0.38115987 0.24926248
0.1470692 -0.35860685 -0.600736 -0.44016674 -0.34557468 -0.039139286 -0.026551466 -0.10339367
0.44661865 0.5346918 0.2071127 0.31013504 0.4279712 0.13777415 0.17460349 0.07137834
0.37119865 -0.033379443 -0.265323 -0.32572874 -0.2705183 -0.33691865 -0.2416286 -0.043902595
0.16451247 0.12710308 0.21781638 0.5488604 -0.06986679 0.31474406 0.38356167 0.22624442

conv1.bias f4 [32]
00000000: 9f0e 9f3a b286 0abe 0c1b 77bd 4e89 b6bd
00000010: 2e20 943e 5198 17be dc2c 953e 2a7b 8e3e
00000020: 6836 6e3e bbaf a8bb 2d6d 863e 7b34 713e
00000030: d9fe 43bb 7b83 1b3e cb16 29be 60c3 4b3e
00000040: 4da4 1fbe d2b4 993b 8033 28be d258 62bd
00000050: 226c 783d e4d5 35bb c7a7 4fbd 99a1 bcbd
00000060: eb72 673e 967d 0e3e 162e 09be 919b 4e3d
00000070: a381 0f3c b5e2 a2bd 0b5d 31be 5dc1 0eba
0.0012135095 -0.13527945 -0.06032853 -0.089129075 0.289308 -0.14804198 0.29135787 0.27828342
0.23262942 -0.005147902 0.2625517 0.23555176 -0.002990654 0.15186875 -0.16512601 0.19898748
-0.1559002 0.004690745 -0.16425896 -0.055260487 0.06065 -0.0027745897 -0.050697114 -0.0921051
0.22602431 0.13915095 -0.13396487 0.05044133 0.008758935 -0.07953397 -0.1732065 -0.00054456835

conv2.weight f4 [64, 32, 3, 3]
00000000: d39b 3e3e a0e3 123e a453 dc3d a539 21be
00000010: ce83 29be 1d23 9abd 1cb3 35be 8400 0cbe
00000020: c26d 65be 20cd 5c3d 34ce ba3d 4226 f33d
00000030: 4bc2 d2bd 7cf4 fdbd f1f4 3bbe 2460 e33d
00000040: da6f 9b3d 3a11 a23d f65f 93bd efe1 1dbd
00000050: de55 193d 8a35 adbd b21d 82bd d8b5 91bd
00000060: a620 f43d ab01 d93d 3003 ac3d 7951 413d
00000070: fcf7 05bd 3176 57bc b0e8 1fbe fbf7 3bbe
00000080: fcae 04be 22cc e53d 6afb 013e 8bc7 33bb
00000090: a59b ff3c 0558 02bd c3cc 0cbc 37d9 653d
000000a0: b445 983d 4585 993d 831f 8ebb 67a0 203c
000000b0: f95c 7e3d 43df 08bd a0b5 5bbd 0573 7abd
000000c0: 4a64 2cbe e4c6 45be e700 29be 237e 21bd
000000d0: b202 c23c 0d56 2a3d 781e 44bd bff1 f6bc
000000e0: 143c 9cbc c84e 80bd 3f5d 2a3b d58c 36bd
000000f0: 89f7 4f3c 5c60 4f3d 3e99 3e3d 9b0a a83d
00000100: fb90 a63d 0642 843d 35f9 233c 160b 80bd
00000110: 80f1 d73b b771 8d3d 97cc 48bc 815a 893d
00000120: b9d6 85bc 4bf9 273d eac4 9c3d d39e 293d
00000130: fd2d c13d 8b76 093c 8c91 a63c 6e2a 74bc
00000140: 92ce edbb 5682 b03d 1734 a43d 2f25 863b
00000150: a239 a1bd 024e b8bd 9c6b edbd 430d ce3d
00000160: a137 8c3d e1b7 9e3d 8ab1 bfbd f791 2ebd
00000170: fe9a 5bbd faee 19bc 4058 5fbb 1c68 15bd
00000180: c192 ccbd 2ab0 e13c 7614 d3bc 036e ce3c
00000190: f188 283d 9a83 ec3c 9b8d abbd 63ca 7ebd
000001a0: f01e 97bd 50b9 e03c b9cb 573d e740 c03d
000001b0: 3245 36bd 99f9 51bb 76f2 81bc 6578 83bc
000001c0: 0370 18be 1df8 97bd d9f2 043d 30f8 b43d
000001d0: 3f0c 0c3d 2557 c9bd c554 2fbd 66de 90bd
000001e0: 4c16 9abd 7199 e1bc f3d8 13bc d1aa 643d
000001f0: 1245 7f3a 5d10 8ebd 7f7e 673e b1e6 633e
00000200: 8091 983e b768 973c d9b3 e03d 8301 f8bc
00000210: 8385 333d e05d 423d c9b2 823d df62 663d
00000220: 2dd5 903c f2a7 643c 11fd c63c 0316 f93b
00000230: 038a d8bc 37ae 423d 742b fb3c 55a4 a43c
00000240: 8c8a 413e 6e16 723e b574 9e3e 6b4d c33c
00000250: 6098 1f3e 68e0 893d ca97 123d 18c9 1abd
00000260: 255f 16bd 1a97 52bd a5d4 b3bd 722c 15be
00000270: 20ef 6a3d baba 7f3d a2d2 c33d 9016 9f3d
00000280: ee47 173e 09b7 fc3d 21c0 b73d 0351 c93c
00000290: f351 123d a028 abbd 828d 2cbe 66d5 3fbe
000002a0: 16f9 4e39 d11b 473d d37d d83c 9e56 2b3d
000002b0: a980 223e 1f14 9b3d 75ac f0bd 4f83 43be
000002c0: d8dd 5cbe cb74 323d 8bee 223d 8a34 e9bb
000002d0: 48ef 1e3d 1b3e c33c ff28 ac3d ec32 cabd
000002e0: 2dc7 57bd d11f 97bd 27d0 dc3d 237d c93d
000002f0: e709 1e3d cce0 503e 763b 353e daeb 023d
00000300: 7ecc 2f3e f8c7 853e 53e4 223e 0743 df3c
00000310: 1553 42bd 776a e13d 8d02 33bd 99b0 28bc
00000320: d1d7 a43d c16e 2bbd 495e 683d cf2a cbbd
00000330: 0492 993d 6efd 253d 29ac 503d 31fd 393d
00000340: a913 793d 8cfa 9c3d 3044 7dbb e9a1 003d
00000350: a6f1 cbbd 9de5 803e a715 3d3e 62c3 383e
00000360: 5361 33bd 10de d6bb 601c fc3c 56a3 94bd
00000370: 97ed 2dbd f2b7 7cbd 526e 323d bc0d e23d
00000380: 66b1 8c3d 651a 11be a83a 41be 3915 4fbe
00000390: 9238 bb3d 97aa 153e 60fb bb3c 5b06 733e
000003a0: b350 5e3e 5617 233e eed8 e73d d692 d33d
000003b0: 4030 f33d 69ef dbbd aa8b 90bd bb96 4ebd
000003c0: 1b1c a4bd 5e90 b9bd d581 82bd 0377 42be
000003d0: 4559 20be a893 91be b35d 18bc fcd8 8e3c
000003e0: 11dd 5e3d 8a34 663e 4460 333e 9c89 533e
000003f0: d3da 3dbb c84d 733d 9374 753d 1ad5 8ebd
0.1861413 0.14344645 0.10758141 -0.15744646 -0.16554186 -0.075262286 -0.17744106 -0.13672072
-0.2240515 0.05390656 0.091213614 0.118725315 -0.10290965 -0.12400147 -0.18355156 0.11102322
0.07589693 0.07913442 -0.071960375 -0.038545545 0.037435405 -0.084574774 -0.0635332 -0.07114762
0.1192029 0.10596021 0.083990455 0.04719684 -0.0327072 -0.013150738 -0.15616107 -0.18356316
-0.12957376 0.11220576 0.12693563 -0.002743217 0.031202147 -0.031822223 -0.008593741 0.056115355
0.0743517 0.07496122 -0.0043372526 0.009803868 0.062100384 -0.033416044 -0.053640008 -0.061144847
-0.16835132 -0.19314152 -0.1650425 -0.039426934 0.023682926 0.04158597 -0.04788062 -0.03014457
-0.019071616 -0.06265026 0.002599552 -0.0445679 0.012693294 0.050629005 0.046532862 0.08205148
0.081331216 0.064579055 0.010008146 -0.062521145 0.0065900683 0.06906455 -0.012255809 0.067067154
-0.01633774 0.04100923 0.07654746 0.041411232 0.094326 0.008390079 0.020333074 -0.014902694
-0.007257291 0.086186096 0.08017748 0.004093788 -0.07872321 -0.08999254 -0.115927905 0.10061123
0.06846548 0.07749916 -0.09360035 -0.04261967 -0.05361461 -0.009395355 -0.00340797 -0.03647624
-0.099889286 0.027549822 -0.025766592 0.025198942 0.041146223 0.028871346 -0.083766185 -0.06220473
-0.07378948 0.027432114 0.05268452 0.09387379 -0.044499584 -0.003203964 -0.015862685 -0.01604862
-0.14886479 -0.07420371 0.03245816 0.088364005 0.034191366 -0.098310746 -0.042805452 -0.07073669
-0.07523784 -0.027538987 -0.009023893 0.055826966 0.00097377703 -0.06936715 0.22606848 0.2225597
0.29798508 0.01848255 0.10971803 -0.030274158 0.0438285 0.047452807 0.06381757 0.056246635
0.017679775 0.013956057 0.024290593 0.007601501 -0.026432997 0.047529425 0.030660369 0.02009789
0.18900508 0.23641369 0.30948415 0.023840627 0.1558547 0.06732255 0.03578929 -0.037789434
-0.03671183 -0.051413633 -0.08780793 -0.14567736 0.057356954 0.062433936 0.095616594 0.07767975
0.14773533 0.12339599 0.089721926 0.024574762 0.035722684 -0.08357358 -0.16850856 -0.18733749
0.00019738483 0.048610512 0.026427185 0.04183065 0.15869392 0.07572197 -0.117516436 -0.19093059
-0.21569002 0.043568414 0.039778274 -0.007116859 0.038802415 0.023833325 0.08406257 -0.09872994
-0.052680183 -0.073791154 0.107818894 0.09838321 0.038583662 0.20398253 0.17698464 0.031963207
0.17167851 0.26129127 0.15907411 0.02725364 -0.047442514 0.11006635 -0.043703604 -0.01029601
0.08048976 -0.04185367 0.056730542 -0.099202745 0.074985534 0.040524893 0.050945435 0.045407478
0.060809765 0.076649755 -0.003864538 0.03140441 -0.099582 0.2517518 0.18465291 0.18043283
-0.043793987 -0.0065572336 0.030775249 -0.07257716 -0.04246291 -0.06169886 0.04356224 0.11037776
0.068697736 -0.14170225 -0.18870032 -0.2022294 0.09141649 0.14615856 0.022947013 0.23732893
0.21710472 0.1592687 0.11320673 0.10330741 0.11874437 -0.10739023 -0.07057889 -0.050436717
-0.08013173 -0.09060739 -0.0637242 -0.18990712 -0.15659054 -0.28432965 -0.009299683 0.01743745
0.054410044 0.2248098 0.17517191 0.20657963 -0.002896954 0.05940035 0.059925627 -0.0697424

conv2.bias f4 [64]
00000000: d1eb cbba 5cf4 61bd c9a3 57bd fd19 a9bc
00000010: 150f 3fbd a0de 30bd 8c94 903c 9aef 3ebc
00000020: 5b8a 46bd 7444 99bd 2ff4 8bbd 7f66 d63b
00000030: 93ef 18bd 4230 d83b 022f 7fbd 8c88 09bd
00000040: 91b5 b4bd b872 123c 3d47 35bb 8e24 56bd
00000050: 3b68 1bbd d0bc 9bbc 69ac 8e3d 8841 633d
00000060: 5bae 3f3d 0e0a b6bc 5778 57bd faee 89bd
00000070: a3fc 54bd e565 4abb 8486 0fbb 2f8f fbbc
00000080: fc4c a53c 2afc bc3c 24b6 d3bc 8050 8fbc
00000090: 7dc1 83bd 10fa fcbd 2cf1 33bd 0c5c 1cbd
000000a0: 9eaf 9dbc 422a af3c 08e5 efba 0d61 12bd
000000b0: 4e91 5dbd 2d90 80ba b2f9 3e3d 3416 4d3b
000000c0: b57f eabc 050c 3f3d e923 8fbd d51f 83bc
000000d0: 5501 96bd 2830 793c 9a34 8bbd 9698 82bd
000000e0: 3916 76bd 4a26 f4bb 17e2 4fbd 8a19 c13c
000000f0: c343 64bd 83d7 7dbc 0f6a 62bc f181 a5bb
-0.001555795 -0.05516468 -0.052646432 -0.020642275 -0.046645243 -0.04318106 0.017648958 -0.011653805
-0.04847179 -0.074837595 -0.06833684 0.00654298 -0.03733785 0.0065975497 -0.06230069 -0.033577487
-0.088236935 0.008938484 -0.002766087 -0.052280955 -0.0379412 -0.019010931 0.069664784 0.055482417
0.046797138 -0.022221591 -0.052605 -0.06735034 -0.051998746 -0.0030883488 -0.0021900246 -0.030707924
0.02017831 0.02306946 -0.025843687 -0.01749444 -0.06433389 -0.12352383 -0.04393117 -0.03817372
-0.01924878 0.021382455 -0.001830251 -0.035737086 -0.05409365 -0.0009808593 0.046624847 0.0031293752
-0.028625349 0.046642322 -0.06989271 -0.01600639 -0.07324473 0.015209235 -0.06797142 -0.0637676
-0.060079787 -0.0074508535 -0.050752725 0.023571748 -0.055728685 -0.0154932765 -0.013819232 -0.0050508906

fc.weight f4 [10, 3136]
00000000: 77fe dd3b 7247 0c3c a042 e23c 5348 b1bc
00000010: c455 92bc 14ae ef3b a517 5039 988b c1bb
00000020: 678d 06bc 9e6e 13bc 4f63 f3bc 7c55 f9bc
00000030: de99 2bbc 1ec2 0c3c 050f 923b 5bfa dbbb
00000040: 531c debc 79f6 eebd a518 26be a4bf 90bd
00000050: 75f9 40bd b115 1ebd 9c0e cfbd e373 d7bd
00000060: 95ae f1bc b0b7 f73b 31d1 56bc 97c0 8abd
00000070: 7e87 493c 1508 d4bd 780a 0cbe aa42 d6bc
00000080: be2a 88bc 88a3 32bc d210 90bc bf7c a63b
00000090: e4c9 d6bc 0033 b9bc 87ce 7d3c 0a21 683c
000000a0: ce3b 303c 3d8c b63c c0bb d63c 78ac 213d
000000b0: 3d59 6abb 7805 8ebb be38 5cbb f670 1d3c
000000c0: 8988 953c b8c3 2bbb 1eff ba3a a63e 433c
000000d0: ebb6 da3c c7a9 673c 44b5 07bb 8b1c 99bb
000000e0: 7c83 adba db39 fcbc 6122 a3bd 8d6f 973c
000000f0: 6fa1 4ebc e6b7 0dbd 319d 1fbd 7260 95bc
00000100: 7b40 16bd ae42 633b 9360 97bd e2e5 2bbd
00000110: 598c d0bc 7c35 f9bd fc71 5ebd 469a 5ebd
00000120: d996 133c 2d63 24bc 746f 43bc be7b 8bbd
00000130: bf91 33bd 7842 02bb abd1 43bd 9159 393d
00000140: 0311 373d 0c61 853c 8347 c23c 437d a8bd
00000150: ae4a 37bb 6c10 cc3b 9eec be3b 4132 363b
00000160: c39a 1bbd fcb2 063d 8fb7 77bd 970f 2f3c
00000170: 9d18 093d e5e8 763c b48d 363c ee58 193d
00000180: ee9f 933d 56a1 58bb 038e 903c 057a 0d3d
00000190: bd9b 6abc 875b a1bc 5d1d 0dbd 19d7 303b
000001a0: e671 1cbc a946 51bc 15a9 3abc 6186 d5bc
000001b0: f832 2a3c 77da 85bb 7aa7 38bd 3f38 2ebc
000001c0: 47d9 403c dd5b 5d3a 2983 d93c 9c13 64bc
000001d0: 0211 1cbd f8ff 6abc 42ef 28bd ca01 663b
000001e0: 7264 0f3d 9901 2cbc d13c ebbc 25d4 4e3c
000001f0: 85a4 823b 4e5e 06bd c981 3fbb 79d3 963c
00000200: 4d1f 253c 7d73 39bc 5635 c5bc 4040 1e3c
00000210: f6b6 e23c dbef a0bc 2c00 a4bc 2326 5d3c
00000220: 78b9 14ba 524b 9a3c 120c 363c 3034 61bb
00000230: ef9d e6bb 1526 95bb d46c 2dbc 5549 bfbb
00000240: a3c5 cdba 3e3c d53b 9eaf 4cb8 cccb 31bc
00000250: 7293 79bc f71d 463b 0b65 20bd 54b4 97bc
00000260: 5882 15bd 8d87 39bc 303a 72bc 6dae b33b
00000270: 7dd9 d2bb ed6c 2dbb 6d70 413c 6a38 7dbb
00000280: fbb4 fab9 4ab5 65bc 247b 6abc a98c 1abc
00000290: 4e33 bd3c 6ad2 203c ec2c c6bb 030d cebc
000002a0: fe94 913c 7424 ea3c 699b 263c 8e64 91bd
000002b0: 7c2e 0fbd 5240 02bc fac0 ae3c f360 b73b
000002c0: 596a ea3c e703 b8bc a127 3ebd 94d8 5d3b
000002d0: 06ff b63c 81ac 593c 37c7 b93c 4d8d b13c
000002e0: 72ba 303c 190c 00bc 9f2e 3539 6679 a8bb
000002f0: b1f4 e2ba 0432 83bc a3f4 77bc 5182 ccbc
00000300: e08f 86bc 46ee 523b ca96 a9bc 82f4 43bc
00000310: b209 3bbc d4e9 90bc 932e 64bc 53c1 583c
00000320: 6f1e 2e3b ab4a 8f3c 226c d8bc a019 abbc
00000330: db6e 933b cfeb 03bc 13bb 003c 3599 08bb
00000340: d2eb f63b e931 69bc 5780 39bc c205 383c
00000350: cfe9 e93b 829a d7bb c0e5 d6bc 0c03 803c
00000360: 7598 103c e78e 6dbb e81d 1d3d bce6 273c
00000370: 2249 1abd 804c f0bb d2c6 383c c945 c6bc
00000380: cc5a faba 504c 233d e84e 1e3c ced1 c03a
00000390: 570a e93c f587 7f3b 1d31 56bd 614b 143c
000003a0: 5ed4 943c 4f5a a53c b7ad 9b3c 416c c53c
000003b0: b02f d6bc da9a 80bc 92ae f53b abb4 55bc
000003c0: cee4 48bd d261 aebd 2f8a 0bbe 4b03 3dbd
000003d0: 2230 273c 85c8 573b b360 c8bc 5e75 1dbd
000003e0: 71fd ccbb c534 83bd beda 42bd ffbe b6bc
000003f0: d184 f0bb d86f 41bd fcff 963a 98b8 5fbd
0.0067747193 0.008561956 0.02761966 -0.021640932 -0.017863162 0.007314453 0.00019845234 -0.0059065334
-0.008212424 -0.008998541 -0.02971044 -0.03043627 -0.0104736965 0.008591203 0.004457357 -0.0067131943
-0.027113115 -0.11668105 -0.16220339 -0.070678025 -0.0471129 -0.038594905 -0.101102084 -0.105201505
-0.029502193 0.007559739 -0.013111399 -0.06775015 0.01230037 -0.10353104 -0.13675869 -0.026154835
-0.016621944 -0.010903247 -0.017586146 0.005080789 -0.026219316 -0.022607327 0.0154911345 0.014168033
0.010756446 0.022283668 0.026212573 0.03947112 -0.0035758757 -0.004334148 -0.0033603157 0.0096094515
0.018253582 -0.0026209187 0.0014266705 0.011916792 0.02669855 0.014139599 -0.0020707408 -0.004672592
-0.0013238038 -0.030789306 -0.07965542 0.018485809 -0.012611731 -0.034599207 -0.03896827 -0.018234465
-0.036682587 0.0034677195 -0.07391467 -0.04196728 -0.025457548 -0.121684045 -0.054307923 -0.054346345
0.009008133 -0.010033411 -0.011928428 -0.06810711 -0.043840166 -0.0019876044 -0.047807377 0.045251433
0.044693958 0.016281627 0.02371574 -0.08227017 -0.0027968097 0.0062275436 0.005826547 0.002780095
-0.03798939 0.032885537 -0.06047779 0.010684869 0.03347074 0.015070175 0.011142183 0.037438326
0.072082385 -0.0033055148 0.017645841 0.034540195 -0.014319357 -0.019696964 -0.03445183 0.0026983677
-0.00954864 -0.012773194 -0.011392851 -0.026065053 0.010388128 -0.004084881 -0.045081593 -0.010633527
0.011770553 0.00084441697 0.0265518 -0.013920691 -0.038102157 -0.014343254 -0.0412438 0.0035096281
0.0350079 -0.010498428 -0.028715523 0.012623821 0.0039868974 -0.03280478 -0.0029221645 0.018411385
0.0100782635 -0.011319038 -0.024073284 0.009658873 0.027675133 -0.019645622 -0.020019613 0.013497862
-0.0005673389 0.018834744 0.011111276 -0.0034363382 -0.00703787 -0.004551659 -0.010585029 -0.0058375993
-0.0015699159 0.0065074256 -4.8800946e-05 -0.010851812 -0.015232908 0.0030230263 -0.039158862 -0.018518604
-0.03650126 -0.011323822 -0.014784381 0.0054834397 -0.006434618 -0.002646263 0.01180659 -0.0038638362
-0.00047818557 -0.014020273 -0.014311586 -0.00943295 0.023095753 0.009815792 -0.0060478356 -0.025152689
0.01777124 0.028581835 0.010168889 -0.070992574 -0.03495644 -0.0079499055 0.021332253 0.005596274
0.028615164 -0.022462798 -0.04642451 0.0033851014 0.022338402 0.013285757 0.022678 0.021673823
0.0107866395 -0.007815384 0.00017278873 -0.005141425 -0.0017315355 -0.01601506 -0.0151340095 -0.024964483
-0.016426027 0.003218548 -0.020701785 -0.011960151 -0.011415886 -0.017689623 -0.01392712 0.013229686
0.0026568433 0.01749166 -0.02641875 -0.020886242 0.004499299 -0.008051827 0.007857102 -0.0020843272
0.007535436 -0.014233091 -0.0113221025 0.0112318415 0.007138468 -0.006579698 -0.0262326 0.015626453
0.008825411 -0.0036248507 0.0383586 0.010247882 -0.0376674 -0.0073333383 0.011277871 -0.024203198
-0.0019100546 0.0398677 0.009662367 0.0014710964 0.028447313 0.0038990949 -0.05229293 0.009051175
0.01816767 0.020184664 0.019003732 0.024099471 -0.026145786 -0.015698839 0.007497617 -0.013043563
-0.04904633 -0.085147515 -0.13626932 -0.04614572 0.010204347 0.0032925915 -0.024460172 -0.03844201
-0.0062557985 -0.06406549 -0.04757189 -0.02230787 -0.0073400517 -0.047225803 0.0011520381 -0.0546194

fc.bias f4 [10]
00000000: 2f38 93bb af7e ef3c 0c6a 9d3c 15ea babb
00000010: 0eb8 a5bc 8fb4 693c 4975 2b3a 307e 5a3c
00000020: 78b1 0fbd 574b 4c3c
-0.0044927816 0.029235212 0.019215606 -0.0057041743 -0.020229366 0.01426424 0.0006540609 0.0133357495
-0.035081357 0.012469134
